project_work/MLP/trained_model_diff.pth (torch, 5704 bytes, 8 tensors)

hidden1.weight f4 [24, 2]
000000 58 85 2d 40 44 1b a6 bf d2 dc 45 40 4b 50 11 c0
       2.7112637 -1.2977071 3.0916028 -2.2705257
000010 70 36 87 bf 7e 5b 92 40 45 7a 0c 40 6a dc 9f 3e
       -1.0563488 4.5736685 2.1949627 0.3122285
000020 75 93 ce bf 9a c3 1f c0 bc ef 8e bf 6c 1e a5 40
       -1.613875 -2.4963136 -1.1166911 5.1599636
000030 d2 20 ac 3f 75 1a 5e 3f dc 28 17 40 47 c7 13 c0
       1.3447516 0.8675912 2.3618689 -2.309038
000040 44 0b dd be 65 59 36 c0 12 1c cc 3f 91 8d d2 3e
       -0.43172657 -2.8492062 1.5946066 0.41123632
000050 d5 2d d1 3f 94 88 1b bf 42 01 1c 40 f4 f5 a8 bf
       1.6342112 -0.60755277 2.4375768 -1.3200059
000060 cb fe f2 3f d6 0b b4 3f f8 ba 3a c0 fb 2d 13 40
       1.8984007 1.4066112 -2.9176617 2.2996814
000070 f7 a0 f2 bf d3 23 68 bf 09 94 fc 3f 90 41 5b 40
       -1.8955373 -0.90679663 1.9732677 3.4258766
000080 0f 09 d4 be 57 c9 06 be 3e c2 06 40 07 c6 f0 3e
       -0.4141316 -0.13162743 2.1056056 0.47026083
000090 41 2e d4 bf 66 62 c1 3e 14 e8 1f 40 07 e8 5e c0
       -1.6576616 0.37770385 2.49854 -3.4829118
0000a0 50 8f ca 3f c3 b3 89 be c6 95 e8 bf 32 5d 74 bf
       1.5824986 -0.2689496 -1.8170707 -0.95454705
0000b0 11 cb 03 c0 86 eb c9 3f 0b f7 f8 bf 4b 39 6c 3e
       -2.0592692 1.5775001 -1.9450392 0.2306873

hidden1.bias f4 [24]
000000 27 d4 61 3e 72 2b a5 bf e5 2a 0c bf af 58 04 bf
       0.22053586 -1.2903883 -0.5475295 -0.5169782
000010 95 5e 1b 40 3e 3d 7b bf 53 c5 e7 be 9d ac 7c 3f
       2.4276478 -0.98140323 -0.45267734 0.98700887
000020 ec 8a 11 40 2c ec 3b be bb 2a 99 bf 2e 2e 9b 3e
       2.274104 -0.18351811 -1.1966165 0.3030867
000030 74 6b 85 bf b0 f5 47 bf 47 3c 18 40 b7 4f 19 c0
       -1.0423417 -0.78109264 2.378679 -2.3954904
000040 4f ac 07 3d d4 cb 16 bf 78 6f da 3f c1 1a f0 3f
       0.03312331 -0.5890477 1.7065268 1.8758165
000050 f8 3d 9d bd ac 5d 12 40 93 a8 cc 3f ca 8d f6 3f
       -0.07677835 2.2869673 1.5988945 1.926202

hidden2.weight f4 [16, 24]
000000 e9 66 de bc d6 f4 c7 c0 51 a8 b4 40 44 54 b4 3e
       -0.02714868 -6.248637 5.6455464 0.3522054
000010 18 12 e5 be c9 2e ce bf 6d 9f 04 3f 9c c1 46 3e
       -0.44740367 -1.6108028 0.51805764 0.19409794
000020 58 7e 43 bf 8c 71 f9 3e 7c 6c 96 be 1b 0b 54 be
       -0.7636466 0.48719442 -0.29379642 -0.20707361
000030 51 38 21 bf dc a8 e0 bd 41 87 bb be 29 01 60 40
       -0.62976557 -0.10969707 -0.36626628 3.5000708
000040 f7 1c 92 be b6 f8 27 3f 8f ba a1 bd 50 c9 6e 3c
       -0.28537723 0.6561388 -0.07896911 0.014574364
000050 aa 7f 96 3e 17 ac 6d be 35 42 2b 3e 1a b7 02 3e
       0.29394275 -0.23210178 0.16724475 0.1276516
000060 fe 47 4d 3d ca 85 a8 40 62 4a 56 c0 5d 40 db bf
       0.050117485 5.2663317 -3.34829 -1.7129017
000070 ba 30 ae 41 74 87 41 c0 d9 17 d1 bf 04 62 d0 3f
       21.773792 -3.0238924 -1.6335403 1.6279912
000080 f9 88 07 41 0a 2e 64 bf e0 19 9f bf 21 87 cd 3e
       8.470941 -0.8913275 -1.2429771 0.40142158
000090 a3 f5 4d c0 10 af 67 c0 9e 67 b2 40 fd 2e 46 c1
       -3.2181175 -3.62006 5.5751486 -12.386472
0000a0 26 3a 9c 3d 79 c9 07 c0 e5 98 13 40 3f e3 40 40
       0.076282784 -2.121672 2.306207 3.01387
0000b0 f0 3f c2 be 70 71 af 40 32 db a1 3f 79 8e 4e 40
       -0.37939405 5.4825974 1.2645018 3.2274458
0000c0 30 4a a0 3e 96 a8 2d 41 51 7b a2 3f eb 6b 19 3f
       0.313066 10.853659 1.2693883 0.59930295
0000d0 90 4e 9b bd 03 b8 2b 3f cf 5b 50 3f 93 fe df 3e
       -0.07583344 0.67077655 0.8139009 0.43748912
0000e0 22 a5 9f 3e 10 a6 06 3f 1d 74 18 3e 31 b8 90 3e
       0.31180674 0.5259714 0.14888044 0.28265527
0000f0 40 83 4d c0 1d 3e 1b 3e 4f e6 d3 be 23 c8 4a 42
       -3.2111359 0.15160413 -0.4138665 50.695446
000100 74 9e a0 bd a5 ee 0e 3f fa 41 b0 be db 7d ad be
       -0.078427225 0.5583289 -0.34425336 -0.33885083
000110 59 8e 0f 3f d1 e8 68 be a0 ca b6 bd 73 24 20 be
       0.5607658 -0.22745062 -0.089253664 -0.15638904
000120 2c 36 9c c0 a3 c4 26 c0 7e 2d 0a 40 29 2f df c0
       -4.881613 -2.6057518 2.1590266 -6.974507
000130 60 61 67 3f 57 4a 3c 40 23 b1 da bf 27 ad 55 c0
       0.9038296 2.9420373 -1.7085308 -3.3386934
000140 79 70 ef 3e e5 6b dc bf cf 3e 33 bf a2 3c 9b c0
       0.46765497 -1.7220427 -0.70017713 -4.8511515
000150 0a f4 81 c1 c8 8e be c0 c8 e3 83 3f 16 70 66 c1
       -16.24416 -5.9549294 1.0303888 -14.402365
000160 32 4e e5 3e 3f d9 af c0 03 22 2a 3f 7d f5 32 c0
       0.4478622 -5.4952693 0.6645815 -2.7962334
000170 c6 67 c1 bf d2 79 66 3f 09 40 84 3f 54 d5 93 3f
       -1.5109794 0.90029633 1.0332042 1.1549478
000180 4c 3d 35 be b5 34 00 41 6d cb 08 c0 1c a9 a8 bf
       -0.17699164 8.012868 -2.1374161 -1.3176608
000190 79 b1 08 41 b1 49 23 c0 de bc 96 bf f0 68 fb 3e
       8.543328 -2.5513728 -1.1776388 0.49103498
0001a0 cd a6 af 40 96 6c 20 bf 72 2c 35 bf c9 4e 17 3e
       5.4891114 -0.6266569 -0.70770943 0.14776148
0001b0 56 45 01 c0 a6 43 dc bf 63 81 73 40 56 c1 c7 c0
       -2.019857 -1.7208145 3.8047721 -6.2423506
0001c0 1a 7f 9c 3d 3b 9d a1 bf d2 e0 d4 3f a4 9a c8 3f
       0.0764143 -1.2626108 1.663111 1.5672193
0001d0 bd db ba be d1 5c 6b 40 bf 23 9d 3f 55 e4 17 40
       -0.36495772 3.67754 1.2276534 2.3733113
0001e0 ee 87 3a bd b7 0b 06 c0 e8 3a 8e bf db 80 cd 3c
       -0.04553979 -2.094465 -1.1111727 0.025085857
0001f0 58 74 92 bf f2 f1 27 40 99 a4 81 be 71 f1 8d 3e
       -1.1441755 2.6241422 -0.2532089 0.27723268
000200 b4 2c 0a 3f 18 53 e7 bd a0 eb c2 3b 6e 15 9e 3b
       0.5397446 -0.11295146 0.005948499 0.004824332
000210 56 c9 31 3e f4 2c 93 3f 48 6c 4c be 2c d9 eb bf
       0.1736196 1.1498094 -0.19963181 -1.8425651
000220 a1 96 64 be 2e b9 95 be 7a af a6 3c 79 f3 74 3e
       -0.22323085 -0.29242843 0.020347346 0.23921002
000230 43 dc 4e 3e b5 40 cc 3b d2 62 d6 bd 2a 85 7f be
       0.2020121 0.0062332996 -0.10468067 -0.24953142
000240 cd 0f 8c 40 76 4a b2 40 20 d9 08 c1 d7 ac df be
       4.376929 5.5715895 -8.553009 -0.43686554
000250 be f0 b8 c0 76 7d 20 c1 bb ee d4 bf 36 4a a9 40
       -5.7793875 -10.03063 -1.6635355 5.290309
000260 c2 fc 05 41 81 23 81 be ab 87 45 3e 97 d9 87 40
       8.374208 -0.252224 0.19290034 4.2453113
000270 bb 8c 6b c0 c8 50 7d c0 05 a2 f0 3f 78 f3 90 bd
       -3.6804645 -3.9580555 1.8799444 -0.07077688
000280 b2 f0 9c 3e e0 35 5b bf 48 f0 b5 be 32 01 f0 40
       0.30652386 -0.8562908 -0.35534883 7.500146
000290 af 19 92 3e 46 b8 00 40 94 23 e9 bf 90 64 5a be
       0.2853522 2.0112472 -1.8213983 -0.21327424
0002a0 47 d5 53 3e df 38 64 40 2a 2d c2 3e ca df af 3e
       0.20686828 3.5659711 0.37925082 0.34350425
0002b0 ec 6b c1 be 46 7f 08 bf 8e 81 63 3e 72 42 18 3f
       -0.3777765 -0.53319204 0.2221739 0.5947639
0002c0 7e cf ef 3e b4 56 e6 3e 92 0d 43 3e e2 ba 0c 3f
       0.4683799 0.44988024 0.19048145 0.5497266
0002d0 d2 c8 57 be e4 14 87 be 6f 72 e1 be 6e e3 3a 40
       -0.210727 -0.26383126 -0.44032618 2.9201312
0002e0 6d 4a a2 be 31 6a 39 3e ce 57 0f bf fc 12 f3 3e
       -0.31697407 0.18106915 -0.55993354 0.4747542
0002f0 85 e0 82 3e 0d 1f c5 be 68 a8 f4 be 36 af 1e bf
       0.2556192 -0.38500252 -0.47784734 -0.619861
000300 57 09 24 bf 55 05 3e c1 7a d3 1c 41 96 dc 44 3e
       -0.6407675 -11.876302 9.80163 0.19224772
000310 c9 03 a0 3e 4a d9 04 41 6a 65 7e 3f 1c 46 a8 be
       0.31252888 8.303049 0.99373496 -0.3286599
000320 44 ce 2e bf 40 85 50 3f ed aa de bf 05 bb 8c be
       -0.68283486 0.81453323 -1.7395912 -0.27486435
000330 3a db 2d 3f 64 4c c8 bd 42 40 c4 3f 81 d0 0f 40
       0.6791264 -0.09780195 1.533211 2.247101
000340 90 c6 8d bf 6f 68 c7 3e bc f5 1c 40 bc 1f 8d bf
       -1.1076221 0.38946864 2.4524984 -1.102531
000350 97 0b 50 3f a6 b5 cf 3f 43 a8 45 40 d9 19 1a 40
       0.81267685 1.622731 3.0883949 2.4078276
000360 a0 bb df 3e 93 aa cb bf d7 14 dc bf bb 35 b6 3d
       0.43697834 -1.591143 -1.719386 0.08896967
000370 e7 c5 f7 bd fb e5 f6 3f b5 ad 13 3b 50 d4 3a 3f
       -0.12098294 1.9288934 0.0022533957 0.72980213
000380 b3 54 e1 be 33 76 26 bd 7e a3 7b 3e 28 94 0d 3f
       -0.44009933 -0.040640067 0.24574086 0.55304193
000390 5c e3 88 3c d4 9d 8d be 5a 9b a3 be 3f 20 55 c0
       0.016709976 -0.27659476 -0.3195446 -3.3300931
0003a0 55 a2 9d 3e a9 7a dd 3c 40 33 13 bf 31 e7 70 3f
       0.30787912 0.027036028 -0.57500076 0.9410277
0003b0 17 02 83 3a 83 11 25 be 7d 05 48 bf ef e8 1f bf
       0.000999513 -0.16119961 -0.78133374 -0.62464803
0003c0 2a 28 59 40 72 ac 84 bf e7 06 aa c0 f6 50 53 40
       3.3930764 -1.0365126 -5.3133426 3.3018165
0003d0 6c d2 89 c0 75 8d cb c0 79 10 b9 3f 78 f7 2c 40
       -4.3069363 -6.3610177 1.4458152 2.7026043
0003e0 9e c2 1c 3f 64 c6 d0 3f cf f1 5f 40 e1 6e 5c 40
       0.6123446 1.6310544 3.4991338 3.4442675
0003f0 a8 e0 79 40 4e e5 21 c0 ce 92 43 c0 b1 e7 61 3f
       3.904337 -2.5296206 -3.0558352 0.8824416

hidden2.bias f4 [16]
000000 8f f9 d8 3e 88 2a d4 3f 75 00 a4 be ce 5c 16 3e
       0.42377898 1.657548 -0.320316 0.1468384
000010 f8 18 93 3f dc 19 c8 3e b7 2b 64 3f b8 62 8a be
       1.1491995 0.3908223 0.89129204 -0.2702844
000020 1d 23 6b 3f f8 0a c5 be 1b 63 32 bf 93 95 7d 3f
       0.91850454 -0.3848493 -0.6968247 0.9905636
000030 c0 10 0e 3f 93 a1 aa 3e 61 c4 c3 3d 79 28 60 3f
       0.5549431 0.33326396 0.09558941 0.87561756

hidden3.weight f4 [8, 16]
000000 1e b6 92 3f 97 6c 6e 40 4d 21 ae bf 6f 96 6a 3b
       1.1461828 3.7253778 -1.3603913 0.0035795232
000010 f4 70 02 40 1e 5b 1d 40 49 8a e6 be bb 4e d5 bf
       2.038144 2.4586864 -0.45027378 -1.6664652
000020 d2 cf 04 40 a4 8c 99 40 7d 53 5e c0 ee 21 44 40
       2.0751843 4.798418 -3.4738457 3.064571
000030 97 dc 0b 3f 87 42 63 3f 74 3f b0 3f 34 0e bb bf
       0.5463347 0.8877339 1.3769364 -1.461371
000040 db 2f 01 40 78 ec 78 40 8b a2 38 c0 48 c8 e4 bf
       2.0185459 3.889433 -2.8849208 -1.7873621
000050 aa a6 c8 c0 cd 4c 95 bf 47 ea 90 bf 45 83 eb 3f
       -6.2703447 -1.1664063 -1.1321496 1.8399435
000060 f7 cc 49 c0 0b 07 dc 3e 92 20 de bf 74 f0 8f 3f
       -3.153135 0.42974123 -1.735369 1.1245255
000070 1b 85 fe 40 ad 5d d2 3f ec 4b bb bf 13 01 0e 40
       7.953748 1.6434838 -1.4632545 2.2188156
000080 17 58 00 bd f6 ac 04 c0 ea 1f e1 bf 7a 4b 74 be
       -0.03133401 -2.0730567 -1.7587864 -0.23856917
000090 2d b7 e1 bf 08 07 93 3f d9 5e 99 3f af 31 f5 bf
       -1.7634026 1.1486521 1.198207 -1.9155787
0000a0 08 1f f3 3f 6b 65 e3 c0 28 9e f4 bf 17 ed 95 40
       1.8993845 -7.10613 -1.9110765 4.6851916
0000b0 7d 3c 3e 3f af 53 15 bf f7 7b 9e 40 05 41 d1 bf
       0.7431105 -0.58330816 4.9526324 -1.6347967
0000c0 23 87 03 40 42 9a 05 40 e6 b1 b6 c0 82 64 d3 bf
       2.055123 2.0875401 -5.709216 -1.6515048
0000d0 14 fb 6a c0 72 90 e7 40 01 e3 94 40 6a 54 fe bf
       -3.6715746 7.2363825 4.6527104 -1.9869511
0000e0 5c 79 0c 3f 96 bc 84 3f cc f0 09 c0 c6 d8 f1 3f
       0.5487268 1.0370052 -2.155322 1.8894279
0000f0 b2 79 a7 bf 2d e2 02 40 e8 d8 7b bf 18 66 df 3e
       -1.3084013 2.0450547 -0.9837785 0.4363258
000100 ba 39 d9 3f 50 dd 05 c0 f0 2a e0 40 4f 2a 2c c0
       1.6970742 -2.0916328 7.0052414 -2.6900823
000110 53 1a b4 3f ea 42 37 c0 2d b6 25 40 22 ae e0 3f
       1.4070534 -2.863459 2.5892441 1.7553141
000120 8d 84 db bd 02 ca 29 c0 1f d9 9a bf 70 4a b5 3f
       -0.107186414 -2.6529546 -1.209751 1.4163342
000130 f4 7a 6f be 02 da fd 3f 03 15 95 40 a4 f5 d9 bf
       -0.23386747 1.9832156 4.658815 -1.7028089
000140 b7 d0 a3 3f c2 a8 33 40 93 f4 ce 3f 5d a9 d0 be
       1.279807 2.8071752 1.6168388 -0.40754214
000150 72 a6 30 40 8c 4d 00 40 51 fa 34 3f 7f ab f1 3f
       2.760159 2.004733 0.7069445 1.8880461
000160 3a 78 3e 40 b8 62 ee 3f 2a 4a 30 bf 07 5d 9d 3f
       2.976088 1.8623877 -0.68863165 1.2294015
000170 21 87 09 bf ae 6d ad 3f 03 4b 56 40 f0 98 8c bf
       -0.53721815 1.3549097 3.3483284 -1.0984173
000180 1a 1d a5 3f ec e4 10 c0 fd a4 b8 40 80 7d f4 bf
       1.2899506 -2.2639723 5.77014 -1.91008
000190 3b 9a ad 3f d5 fe 94 c0 66 6e 29 3e 38 b7 2f 40
       1.3562692 -4.6561074 0.1654602 2.7455578
0001a0 db 78 9f 3e 92 d8 2a c0 af 78 e5 bf 07 a8 ce 3f
       0.31146893 -2.6694684 -1.7927455 1.6145028
0001b0 63 73 25 40 16 d7 ba 3f da 7f ed 3f f8 d3 c4 3f
       2.5851676 1.4596889 1.8554642 1.5377188
0001c0 54 0a c5 3f c1 76 ad 40 74 ee 3d 40 52 20 27 c0
       1.5393777 5.4207463 2.967679 -2.6113477
0001d0 10 dc 90 c0 88 2e 20 c0 c5 71 c8 3f 86 e7 3b 3a
       -4.526863 -2.50284 1.565972 0.00071679836
0001e0 5c 8f 59 c0 8f cd 80 3f 46 96 c3 bf dd 5c 80 3f
       -3.399375 1.0062732 -1.5280235 1.002834
0001f0 e7 1a 63 c0 c1 51 5c 3f 38 6b 21 41 57 a7 39 40
       -3.548517 0.86062247 10.088676 2.9008386

hidden3.bias f4 [8]
000000 af 15 8a 3f ea 83 e2 3f 68 b0 c5 3f 7a 42 12 40
       1.0787867 1.7696507 1.544446 2.2853074
000010 d1 fb a2 3f 45 f2 b1 3f e1 ef 8d 3f bf f8 aa 3f
       1.2733098 1.390206 1.108883 1.3357161

predict.weight f4 [2, 8]
000000 dd 48 56 be e7 f6 09 41 a2 f0 8c c0 43 ad c4 40
       -0.20926233 8.622779 -4.404374 6.14615
000010 12 df 90 c0 f9 15 dd bf 74 2a 74 c0 c0 6f 03 41
       -4.5272303 -1.727233 -3.8150911 8.214783
000020 e1 a8 48 40 1f 7e ec bf ea 13 ad 40 d3 fa 5a 3f
       3.1353076 -1.8475989 5.408681 0.8553898
000030 3c e0 33 c0 19 af 10 40 f8 20 ea bf c6 5b 5b c0
       -2.8105612 2.260687 -1.8291311 -3.4274764

predict.bias f4 [2]
000000 99 ad 86 3f 7c c9 8b bd
       1.0521728 -0.068255395
