project_work/MLP/trained_model_dunno.pth (torch, 5704 bytes, 8 tensors)

hidden1.weight f4 [24, 2]
0	0x3fdb0a83	1.7112583
1	0xbf09ece1	-0.53877074
2	0xbf7982b5	-0.9746507
3	0xbf33ee2d	-0.702853
4	0xbf880cb6	-1.0628879
5	0x3f90e2f3	1.131926
6	0xbfa2facd	-1.2732788
7	0x3f9fe146	1.2490623
8	0xc04f3bd1	-3.238026
9	0x405e21c6	3.4708114
10	0x3fbb3b2c	1.4627433
11	0xbfaaf037	-1.3354558
12	0x3f9d6cdb	1.2298845
13	0x3f99f1db	1.2026933
14	0x3c99ba80	0.018765688
15	0x3fdda262	1.731518
16	0x3f745804	0.954468
17	0xbe0d6a9f	-0.13810204
18	0x3f9c548d	1.2213303
19	0x3fbda93d	1.4817272
20	0xbf6b4725	-0.9190543
21	0x3e90517d	0.2818717
22	0x3fe04a97	1.7522763
23	0x3fdb2e8d	1.7123581
24	0xbe810eb2	-0.25206524
25	0xbf9d27b3	-1.227774
26	0x4049ee7c	3.155181
27	0x3ff4b88e	1.9118822
28	0xbfa44c9e	-1.2835882
29	0xbe8b6ab8	-0.27229857
30	0x3f6b0268	0.91800547
31	0x3fe2dcca	1.772363
32	0xbfde2733	-1.7355713
33	0x3fc624d9	1.5479995
34	0x404f53ef	3.239498
35	0xbf34ac48	-0.7057538
36	0x401a8884	2.4145823
37	0xbfaa9bce	-1.3328798
38	0x3f636f5b	0.8884179
39	0x40204909	2.5044577
40	0x3fba5bb4	1.4559236
41	0xbf7d304b	-0.98901814
42	0x402d7501	2.7102664
43	0xbec9dce8	-0.3942635
44	0xbfec150f	-1.8443927
45	0x40739cd7	3.8064477
46	0x405d8c1e	3.461677
47	0x3f95f753	1.1716102

hidden1.bias f4 [24]
0	0xbfb3b53f	-1.4039687
1	0x3fc96cb3	1.5736297
2	0x3f2c52e4	0.6731398
3	0x3f3aecad	0.7301739
4	0x3db52a6f	0.08845984
5	0x3f86b41b	1.0523714
6	0xbee6925a	-0.45033532
7	0xbfd73e7d	-1.6815945
8	0xbfa553a2	-1.2916148
9	0xbf0b1870	-0.54334164
10	0x3f749767	0.9554352
11	0xc01a2671	-2.4085963
12	0x3fc7b34c	1.5601592
13	0xbf8ff030	-1.1245174
14	0x3fbb01cd	1.4609925
15	0xbf15411b	-0.5830247
16	0x3f7c8176	0.9863504
17	0x3e79ce2d	0.24395056
18	0x3f48d951	0.784566
19	0xbf6b2d4d	-0.91866
20	0xbfa9be41	-1.3261186
21	0x3d777993	0.060418677
22	0x3dbe5d72	0.09295167
23	0xc035befb	-2.8397815

hidden2.weight f4 [16, 24]
0	0x3e569ac4	0.20957476
1	0xbe4001c7	-0.18750678
2	0x3e44adc5	0.19206913
3	0x3ea3c176	0.31983536
4	0x3f0e88e1	0.5567761
5	0xbf20594d	-0.6263626
6	0xbf6918ca	-0.9105345
7	0x3d96e93e	0.07368706
8	0x3c9b6ffc	0.018974297
9	0xbf8c320f	-1.0952777
10	0xbea6ee2d	-0.3260359
11	0xbe6e8c06	-0.23295602
12	0xbec75a60	-0.38936138
13	0xc107e70f	-8.493911
14	0xbdfa30cc	-0.122163385
15	0xbf4c6be2	-0.79852116
16	0xbd0795c7	-0.033101823
17	0x408b4b48	4.3529396
18	0x3fd2cfa5	1.6469618
19	0x400d36e6	2.2064757
20	0x3d5dc6bd	0.05414461
21	0xc09f9345	-4.986727
22	0x3d6e411a	0.058167554
23	0x3f70e0ea	0.9409319
24	0x3ff12b71	1.8841382
25	0xbff4c1f3	-1.9121689
26	0xc016036d	-2.343959
27	0xbff62474	-1.9229875
28	0xc1d1ee2d	-26.241297
29	0xbf81b940	-1.0134659
30	0x3f13cb39	0.5773197
31	0x40097776	2.1479163
32	0x3ffec5ca	1.990411
33	0x3f33b1ba	0.70193064
34	0xc042920d	-3.0401642
35	0x416c56e6	14.771215
36	0xc009de63	-2.1541984
37	0x3f366e96	0.7126249
38	0xbfe1a91e	-1.7629735
39	0x3ea284b2	0.31741863
40	0xbfe14789	-1.7599956
41	0x3ea2984b	0.31756815
42	0x3edbce95	0.42931047
43	0x3f78f1bf	0.97243875
44	0x3ffada1b	1.959781
45	0x3ee7f621	0.4530497
46	0xc04a22d6	-3.1583762
47	0x40cd2f6d	6.4120393
48	0x3fa3d0a8	1.2798052
49	0xbffa454e	-1.95524
50	0xc015276b	-2.330531
51	0xc002a79a	-2.0414796
52	0xbf0fc91b	-0.5616624
53	0xbf18a6df	-0.59629625
54	0x3f465cdd	0.7748545
55	0x400d0761	2.2035754
56	0x3fd63bc2	1.6736987
57	0x3f586f25	0.84544593
58	0xc02313ee	-2.5480914
59	0x41831207	16.383802
60	0xc0037496	-2.0539908
61	0x3f6d0ecd	0.9260071
62	0xc0449871	-3.0718043
63	0x3ea3fe84	0.32030118
64	0xc006be63	-2.1053703
65	0xbd42638d	-0.04745822
66	0x3ad80822	0.0016481916
67	0x3f7df397	0.99199814
68	0x3fc1b265	1.5132567
69	0x3f05cd5a	0.52266467
70	0xc183773c	-16.43322
71	0x40888ff8	4.2675743
72	0xbf776721	-0.9664174
73	0xbefa7e1b	-0.48924336
74	0x40060915	2.0943043
75	0x400864ad	2.1311448
76	0xc0a84dd4	-5.2595005
77	0xc01d8c71	-2.4616969
78	0x3e94b3f9	0.29043558
79	0x403cd67e	2.9505916
80	0xbdca782f	-0.098862045
81	0x3f4aa73f	0.7916145
82	0x3f357c09	0.7089239
83	0xc293a2a7	-73.81768
84	0xc0061a9d	-2.0953743
85	0xbe0c6b8a	-0.13712898
86	0x3e81f962	0.25385576
87	0x3f755372	0.9583045
88	0x4003a38e	2.0568576
89	0xc044248f	-3.0647314
90	0xc05e4200	-3.4727783
91	0x3fe2e234	1.7725282
92	0xbf85fa3a	-1.0466988
93	0xbfa1c689	-1.2638713
94	0x403d0ef2	2.9540372
95	0x4169e73f	14.618957
96	0x3e4ea112	0.20178631
97	0xbecc8173	-0.39942512
98	0xbea4d5cc	-0.32194364
99	0xbeb2bd71	-0.34910157
100	0x3f353de3	0.70797557
101	0x3e60c428	0.21949828
102	0x3eb5004d	0.35351792
103	0x3ec91c2d	0.3927931
104	0x3ec5fb86	0.3866846
105	0x3ed43695	0.41447893
106	0xbf2ebcbf	-0.68256754
107	0xbe0928ab	-0.1339442
108	0xbf0f58fe	-0.55995166
109	0x3e5e5f9b	0.21716158
110	0xbe89f549	-0.2694495
111	0x3cc48805	0.02399064
112	0xbed6a005	-0.4191896
113	0x3e2b419a	0.16724244
114	0x3eb69dde	0.35667318
115	0x3eaf3dcb	0.34226832
116	0x3efe610f	0.49683425
117	0x3f0e16a9	0.55503327
118	0xbeb415bc	-0.35172832
119	0x4182655d	16.299494
120	0xbed32350	-0.4123788
121	0x3eda26f4	0.42607844
122	0x3f708395	0.9395078
123	0x3f46cae6	0.7765335
124	0xc0325fbe	-2.7870936
125	0xbf365ae2	-0.71232426
126	0xbf0a4abc	-0.54020286
127	0xbdcae64c	-0.09907207
128	0xbecf4b24	-0.40487015
129	0xbf32c268	-0.6982789
130	0x3f4ad142	0.7922555
131	0xbf279983	-0.65468615
132	0x3e4343d1	0.19068839
133	0xbf0704f5	-0.5274194
134	0x3f82f1ed	1.023008
135	0xbdb67e9a	-0.08910866
136	0x3f6874bc	0.9080312
137	0xbfbc2b58	-1.4700727
138	0xbf973d05	-1.1815497
139	0xbf8eccf6	-1.1156299
140	0xbf149c2e	-0.5805081
141	0xbfa21120	-1.2661476
142	0x3f9e3bd8	1.2362013
143	0xc00d5942	-2.2085729
144	0xbf024c73	-0.508979
145	0x3f23e457	0.64020294
146	0x3f4493d5	0.76788074
147	0x3f43447c	0.76276374
148	0xbf64bf7f	-0.893547
149	0xbea3baab	-0.31978354
150	0xbf046252	-0.51712525
151	0xbe819973	-0.25312385
152	0xbf01be3b	-0.50680894
153	0xbee8d972	-0.45478398
154	0x3f329cb2	0.6977035
155	0xc14b06c5	-12.689153
156	0x3ec21536	0.37906808
157	0xbf111b48	-0.5668225
158	0x3f3db68b	0.74106663
159	0xbe433fd6	-0.1906732
160	0x3f025d6f	0.5092382
161	0xbed28144	-0.41114247
162	0xbf00094d	-0.5001419
163	0xbebef2d5	-0.3729464
164	0xbef24269	-0.47316292
165	0xbee7092b	-0.45124182
166	0x3f9d3383	1.2281345
167	0x3f9a21b6	1.2041538
168	0x3f852c73	1.040419
169	0x3d933d53	0.07189431
170	0x3ee83f90	0.45360994
171	0x3ff43a04	1.9080205
172	0x3fba50e9	1.4555942
173	0xbe3223e2	-0.173965
174	0x3d5f0890	0.054451525
175	0x3f0fd9f3	0.5619194
176	0x3d7dcf4b	0.061965268
177	0x3e175a3e	0.14780518
178	0x3f0e1ceb	0.55512875
179	0x40cd21aa	6.4103594
180	0xbea6ccec	-0.32578218
181	0xbd9b004d	-0.07568417
182	0x3f875d09	1.0575267
183	0xbe473f82	-0.1945782
184	0x401b59e0	2.4273605
185	0xbea75ed5	-0.3268954
186	0xbd6c084e	-0.057625107
187	0xbe80e629	-0.25175598
188	0x3d904d53	0.070459984
189	0x3da34698	0.07972449
190	0xc1614def	-14.081527
191	0x40aefd43	5.4684157
192	0x3fd5ceda	1.6703751
193	0x3e683d20	0.22679567
194	0x3ef9f79e	0.4882173
195	0x40203a9a	2.5035768
196	0x3f12f995	0.5741208
197	0x3e6b484d	0.229768
198	0x3e48d4e3	0.1961246
199	0xbe8d2cf7	-0.27573368
200	0xbd937e87	-0.072018676
201	0xbe0df6d0	-0.13863683
202	0xbe9d50e5	-0.3072578
203	0xc089592b	-4.292135
204	0x3d1b9563	0.037984263
205	0x3e78d8f1	0.24301507
206	0xbe87e19b	-0.2653931
207	0x3f03ac56	0.5143484
208	0xbf867b5e	-1.0506399
209	0xbe3a721f	-0.18207596
210	0xbe92abd4	-0.2864672
211	0xbf6771ba	-0.9040791
212	0xbebed47f	-0.37271497
213	0xbdd8c915	-0.10585228
214	0x40b7b499	5.7407956
215	0x3eda76ab	0.4266866
216	0x3fe57956	1.7927654
217	0xc027c1b1	-2.621197
218	0xc038f52f	-2.8899648
219	0xc0471168	-3.1104374
220	0xc0a461b1	-5.136925
221	0xbec9505f	-0.3931913
222	0x3f8be2c4	1.0928578
223	0x400fcbae	2.2468066
224	0x400065de	2.0062175
225	0x3f8ef25b	1.1167711
226	0xc035f451	-2.843037
227	0xc21c34fc	-39.051743
228	0xbffac473	-1.9591202
229	0x3fc97494	1.5738702
230	0xc04e5372	-3.223843
231	0x3f301abb	0.6879079
232	0xc03d2913	-2.955632
233	0x3f573f5a	0.8408104
234	0x3f81f198	1.0151854
235	0x3fb985b0	1.4493923
236	0x40035fb7	2.052717
237	0x3f9dce63	1.2328609
238	0xc06b3039	-3.6748183
239	0x422a0657	42.50619
240	0x3f7eca90	0.99527836
241	0xbeb84b76	-0.35995072
242	0x3e69fe7b	0.22850983
243	0xbd4a6cb4	-0.049420074
244	0x3fe6be17	1.8026761
245	0xbf6159e2	-0.88027775
246	0x3eac1b3c	0.33614528
247	0x3f0524eb	0.5200946
248	0x3f11856e	0.5684422
249	0x3f0e90dd	0.55689794
250	0xbf10f3d0	-0.5662203
251	0xc0bcc4b9	-5.899014
252	0xbf28afc5	-0.65893203
253	0xbdf6756d	-0.12034116
254	0xbeca99b0	-0.3957038
255	0x3eaa6556	0.33280438

hidden2.bias f4 [16]
0	0xbe4906c9	-0.19631495
1	0xbfc0dc63	-1.5067257
2	0xbfb2ba10	-1.3963032
3	0xbedcc159	-0.43116263
4	0xbf1ec5c0	-0.6202049
5	0x3e6449f8	0.22293842
6	0x3f1a28df	0.60218614
7	0xbec605de	-0.3867635
8	0x3db9bd3a	0.09069295
9	0xbfbf628b	-1.4951948
10	0xbf642db4	-0.8913224
11	0x3f923d70	1.1424999
12	0x3f99581a	1.1980011
13	0xbf319df1	-0.69381624
14	0x3fdc0fe2	1.7192347
15	0x3db0349a	0.08603783

hidden3.weight f4 [8, 16]
0	0xc01681bc	-2.3516684
1	0xbfb85d58	-1.4403486
2	0xbfa72c07	-1.3060311
3	0x402adc9c	2.669715
4	0xc0809bce	-4.019019
5	0xbde5218b	-0.111880384
6	0xc05ba9f8	-3.432249
7	0x3d12cacf	0.035837945
8	0x3faea852	1.3645117
9	0xc037fd88	-2.8748493
10	0x4044ed86	3.0769973
11	0x3fc74e73	1.5570816
12	0x3fa8647b	1.3155664
13	0xbef2a40d	-0.47390786
14	0x3faa3a98	1.3299131
15	0x40022c43	2.0339515
16	0xbf78b21c	-0.97146773
17	0x3eec73d2	0.46182114
18	0xbfbe55e4	-1.4869962
19	0xc0beb6e8	-5.9598274
20	0xc071490f	-3.7700841
21	0x4055a70b	3.3383205
22	0x401248f6	2.2857032
23	0xbf76a1dc	-0.9634073
24	0x3f19cbc8	0.6007657
25	0x3d07ada4	0.03312458
26	0xc0ec4e58	-7.3845634
27	0x4040bfc1	3.0117037
28	0x3f4a655d	0.7906092
29	0x400077c0	2.007309
30	0x3f2653cf	0.6497163
31	0x3f6b20d8	0.9184699
32	0x40ab4b89	5.3529706
33	0xbffc6dd1	-1.9721013
34	0xc011bc69	-2.2771246
35	0xc10ccd1e	-8.800077
36	0x40931615	4.5964456
37	0x407af8b9	3.9214308
38	0x401ca7f4	2.447751
39	0xc00efa34	-2.2340212
40	0x3ff86843	1.9406818
41	0xbf268722	-0.65049946
42	0x40367430	2.8508415
43	0x3ed659a8	0.41865277
44	0x3fbdae1b	1.4818758
45	0xc0121891	-2.2827494
46	0xc00259a3	-2.036721
47	0xc01f2c57	-2.4870813
48	0xbf0bb09e	-0.5456637
49	0x40077781	2.116669
50	0xc013ff46	-2.3124557
51	0xc0da5406	-6.822757
52	0x402b173a	2.6732926
53	0xc0a36134	-5.1056156
54	0xc041ea02	-3.0299077
55	0xbf903124	-1.1264997
56	0x3d3e14dd	0.046406616
57	0x4041302f	3.018566
58	0xbf6b4ba1	-0.91912276
59	0xbefb6ed5	-0.49107996
60	0x3fe9ebd4	1.8275094
61	0x406bdf4a	3.6855035
62	0xbf776836	-0.9664339
63	0xbf35cb17	-0.71013016
64	0xbfcb82ac	-1.5899253
65	0xc0021a3f	-2.032852
66	0xbfb8159f	-1.4381598
67	0xbfb43c62	-1.4080927
68	0xc09c812e	-4.890769
69	0x3f8991d1	1.0747625
70	0xc0725df1	-3.7869837
71	0xbf802975	-1.0012652
72	0x3f8723f5	1.0557848
73	0xc01e3796	-2.4721427
74	0x40c7be2a	6.2419634
75	0x3fbd6722	1.4797099
76	0x401d2546	2.4554
77	0xbfe7d039	-1.811042
78	0x3ff3ef5e	1.9057424
79	0x3fce47ce	1.6115663
80	0xbf9f4293	-1.2442192
81	0x3e956a92	0.2918287
82	0x40a8cb1b	5.274793
83	0x3f194bfa	0.59881556
84	0x407392dd	3.8058388
85	0xc05e6ba8	-3.4753208
86	0x3f59e0d2	0.85108674
87	0xc088b23d	-4.2717576
88	0xbe5abc27	-0.21360837
89	0xbf840f3d	-1.031715
90	0x40ae3f94	5.445261
91	0xbf80ebac	-1.0071921
92	0x4053b7a4	3.3080835
93	0xc030a64b	-2.7601497
94	0x3fee1b10	1.8602009
95	0x3c83d12c	0.016090952
96	0xc01670ac	-2.350627
97	0x3f8d3846	1.1032798
98	0x406caed6	3.6981711
99	0xc0bd5fb6	-5.9179335
100	0x3e9d60fc	0.30738056
101	0xc0415ac2	-3.0211644
102	0x3fe30ca2	1.773823
103	0xc0017206	-2.0225844
104	0x401d42cd	2.4572022
105	0x3e706b60	0.2347846
106	0x40f98485	7.7974267
107	0xbfca0f91	-1.5786
108	0x4013c2b0	2.3087578
109	0xbfe5492f	-1.7912959
110	0x4093b955	4.6163735
111	0xc02e105f	-2.7197492
112	0x410926a8	8.571938
113	0x3d6bfaa7	0.057612088
114	0x3e86cd5b	0.2632855
115	0x3fd18afe	1.6370542
116	0xc0a80863	-5.251024
117	0x4001b2dd	2.026542
118	0x410205cb	8.126414
119	0xbf73d3dd	-0.9524515
120	0xbe8eba50	-0.2787652
121	0x3e934d69	0.28769997
122	0x3e838fbe	0.25695604
123	0x3f119daa	0.568812
124	0x402afd29	2.6717017
125	0xbf0ec438	-0.55768156
126	0xc00392d7	-2.0558374
127	0xc003ded9	-2.0604765

hidden3.bias f4 [8]
0	0x3f863ca2	1.0487254
1	0x3efc24c4	0.492468
2	0x3fb54004	1.4160161
3	0x3e864e17	0.26231453
4	0x3fb9ae20	1.4506264
5	0x3edceeb3	0.43150863
6	0x4015480a	2.332522
7	0xbea03e14	-0.31297362

predict.weight f4 [2, 8]
0	0x404ac275	3.1681187
1	0x4137ec56	11.495199
2	0xc108569c	-8.521145
3	0x40eeae82	7.458802
4	0x4113f848	9.248116
5	0x3e0cd3f9	0.13752736
6	0xc10846f5	-8.5173235
7	0xc10c1be7	-8.756812
8	0x4107c155	8.4847
9	0xbfd0dcdc	-1.6317401
10	0x4081afac	4.0526943
11	0xc08f2812	-4.4736414
12	0xc05bf767	-3.4369752
13	0xc0bf241f	-5.9731593
14	0x402f49e8	2.7388859
15	0x4037fbc0	2.8747406

predict.bias f4 [2]
0	0x3fed7191	1.8550283
1	0xc0d513ba	-6.658658
