project_work/MLP/trained_model_this_is_good.pth (torch, 5704 bytes, 8 tensors)

hidden1.weight f4 [24, 2]
00000000: 3071 f63f d701 2ac0 1567 1a40 069c 08c0
00000010: 641b d2bf aaab 083f 0e63 a4bf 9a2b e7bd
00000020: f47c 7540 6fef 6ec0 a2ed 0240 7c8f bc3f
00000030: f99b 12c0 5ee5 bd3e f307 d03f 25d7 19bf
00000040: a416 803f 8771 31c0 f76a c9c0 b485 9e40
00000050: d2d9 c03f cbc2 fb3f 8b32 0840 076f 883f
00000060: a946 a83f ffd2 2340 70a2 99bf a3b5 1ac0
00000070: d2aa dfbf 3ac0 c53f 1fcb 1b40 280c 05c0
00000080: 982b e3bf a016 723f 205d 13c0 c930 bb3e
00000090: f819 f53f 9585 c9bf a1fa ab3f 2151 43c0
000000a0: fd0e eabf 4a94 b4bf 6c09 a0bf 5726 24c0
000000b0: 7e4a 2c40 ac29 343f 8338 3940 831a dabf
1.9253292 -2.6563623 2.4125416 -2.134523 -1.6414609 0.5338694 -1.2842729 -0.11287613
3.8357515 -3.7333639 2.045754 1.4731288 -2.2907698 0.37089056 1.6252426 -0.6009391
1.0006909 -2.7725542 -6.294307 4.953821 1.5066473 1.9668821 2.128085 1.0658883
1.3146564 2.5597532 -1.2002697 -2.4173362 -1.7474005 1.5449288 2.4342725 -2.078867
-1.7747679 0.94565773 -2.302559 0.36560658 1.914855 -1.5743891 1.3435861 -3.0518267
-1.8285824 -1.4107754 -1.2502875 -2.56484 2.6920466 0.70376086 2.8940742 -1.7039341

hidden1.bias f4 [24]
00000000: 7900 c7bf d99f 493f 1373 943f 0527 b13f
00000010: 901e a13f 429e 36bf 63c1 e03f cdad b7bf
00000020: f6e5 b53f aa35 83be e905 dfbe 3de6 1fbf
00000030: 4f18 c43d 6284 1940 cc28 993f 2436 c2bf
00000040: e178 6e3f a446 e23f 7cb2 d1bf 6b54 c0bf
00000050: c19e dd3d 69a3 b43d 75d4 30bf b60b a93e
-1.5547019 0.78759533 1.1597618 1.3840033 1.2587452 -0.7133523 1.7559017 -1.4349915
1.4210804 -0.2562688 -0.43559197 -0.6246069 0.09574949 2.398705 1.1965575 -1.5172772
0.93153197 1.7677808 -1.6382594 -1.5025762 0.108212955 0.088202305 -0.69074184 0.33016747

hidden2.weight f4 [16, 24]
00000000: ccca 5a3e fea2 7dbf f8e6 24bf c42a 98bf
00000010: 90fb 9cbf ef82 7d3f d75b a1bd 3b83 133f
00000020: 5c87 02c0 97b7 d0c0 c5d7 893f ecf7 5a3f
00000030: c3a6 4c3f f465 a140 0aef 56bb 3310 3a3b
00000040: ca61 cbc0 fed6 fe3d 13d6 d73e c78d a13e
00000050: d3bc b8be f972 7ebf 4118 ed3e c686 44bf
00000060: e7c1 9a3f 21e4 0140 6384 3fbf 408e 26bf
00000070: de61 d23e 44fa 3fbf e1f7 19bf f01a 843f
00000080: 644e 2540 f1e8 1041 0b62 92bf 7ab1 2cbf
00000090: 8b2c 5fbf 1a19 863f 8235 c9bf f43c a43f
000000a0: aebb 14bf cc14 31bf 74ab c23f 2f51 c53f
000000b0: 04e7 383f a753 9c3f 639d 82be 416c 8b3f
000000c0: db3b 27bd 5052 4d3e c09b 9a3d e98d d63e
000000d0: 00bf 3e3d 6146 63be c1a2 1f3e f020 31be
000000e0: 5915 65bd 016c 7c40 9edb cdbe e3d5 abbe
000000f0: 59a0 2cbf 8bb8 283f e696 4a3e 948e ae3c
00000100: 2b58 4a3e 027c db3c a868 a7be d948 99be
00000110: 3a44 b93e 70e4 133f c1f9 91bd a65c 673e
00000120: 3454 8c3f cfc1 b93e 87e3 94bf 95be 56bf
00000130: cf17 b4be 960a 413f 295f 7abf 0044 a33f
00000140: 3fe1 943f 9e57 4140 d51d 1f3f 70da 383f
00000150: 3fec 6e3e d14f 9dbf 3c56 9ebf 8eda b13f
00000160: d545 28bf 869d 81bf 3d51 973f c293 7b3f
00000170: 6aec b8be a882 1fbe 28b3 f03e 9736 373f
00000180: 20b1 20bd 04ff b040 c0b5 f2be 6483 12bd
00000190: 42a5 24c1 35f6 2140 c176 cbbe b452 843d
000001a0: 1fdf 2441 1b9d c4c0 d260 8a3f 7fe1 2440
000001b0: 0305 8a3f b251 37bf bc23 fabe 3c90 ec3e
000001c0: 6534 2dbf 8dc8 15bf a8a3 b13e af3f 07bd
000001d0: e0f8 a3bf 95dd 84bf 98dc a740 7bb0 3140
000001e0: 2d51 14c0 92f9 41bf 0760 6a40 e0d0 3e40
000001f0: 4063 493f a16d 54bf 1b71 7040 269c 46c0
00000200: cf2a 8bbe e469 803f 5f96 0cbf 0eee 24bf
00000210: 6d3c 2b3e 2d0d e8bf d063 4240 1f21 3bc0
00000220: 352b 1ac1 aa47 8a40 687d 23c0 e9ca 04c0
00000230: c46f b5bd 749e a0bc c689 6abf f7cc 3dbf
00000240: caeb 513f b6b3 453e afb9 f4bf cfb6 14c0
00000250: 934f 9cbe f4b0 d73f de28 36c0 4708 ef3f
00000260: eb98 babf 84a9 3441 9da1 ad3f 4c3e c03f
00000270: 8ca9 463f e1ad ffc0 9f20 a2bf 23cb 993f
00000280: 3f46 8bc0 86e3 38c0 a633 a93f faad dc3e
00000290: 004a 2bbf 611e 4fbf cc15 c13f 1bdc b73e
000002a0: ec81 09bf 1b7f 0bc0 64f6 983f 1f23 973f
000002b0: 4a27 d9bf b6f2 61c0 e3f3 c33f 0188 46bf
000002c0: fab3 4e40 4840 1141 0ada 23c0 2b91 62c0
000002d0: 9626 ecbf f7c4 3940 39ce 463f fd4e 3abf
000002e0: adca b33f f202 a93f ece1 49bf 471e aebd
000002f0: dab9 0040 81a4 0740 0c59 8fc0 c1d7 73c0
00000300: 617e d33e c8d1 4840 9c20 853f 53c6 503f
00000310: 9372 28c2 27ad b2c0 d630 9e3f 64f1 26bf
00000320: 2f75 7ec1 1d83 b540 4910 a2c0 bb8d a1c0
00000330: 0807 3bc0 5639 2b40 31d2 033e 78b8 e5be
00000340: 0a19 df3f 0e0d b43f 5253 b7bd a815 203f
00000350: 8581 3640 2666 7340 7e2b d5c0 329c ae3e
00000360: f0f3 6040 982d 9540 6084 25c0 ad35 7cbf
00000370: e6f0 7a40 bd40 d9bf b73b 1fc0 65b4 0140
00000380: b4c4 0741 0a1b 19bd 13cf 36c0 d174 49bf
00000390: 53b9 38c0 49b5 8440 f4d6 5bc0 0953 8940
000003a0: fb4e 7dbf 91b9 1fc0 010e 3140 4b55 6140
000003b0: a7dd 9c3f bd4c 4a40 8b9b e23e 9001 9540
000003c0: e08e 093e ba83 2d3f 679b a1bd fc0e e4be
000003d0: d15c c4be b0ff c53d 73ba eb3d dbe9 c03e
000003e0: 80a3 b73f 0e51 4e40 7322 803e 69a1 563e
000003f0: e4ac e63c 6170 83bf 58a4 1dbf e616 263e
0.21366423 -0.9907683 -0.6441493 -1.1888051 -1.2264271 0.99027914 -0.07878845 0.57622117
-2.0395117 -6.522411 1.0768973 0.8553455 0.7994196 5.0436954 -0.0032796287 0.0028391003
-6.355687 0.1244335 0.42155513 0.3155348 -0.3608156 -0.99394184 0.46307567 -0.7676815
1.2090424 2.029549 -0.7481138 -0.65060806 0.41090292 -0.7499125 -0.6014386 1.0320721
2.5829096 9.05687 -1.143617 -0.6745831 -0.8717734 1.047641 -1.5719454 1.2831101
-0.58098876 -0.6917236 1.5208573 1.54154 0.722275 1.2213029 -0.25510702 1.0892411
-0.040828567 0.20050931 0.07549238 0.41905144 0.04656887 -0.22194816 0.1558943 -0.17297721
-0.05592856 3.944092 -0.40206617 -0.3356162 -0.6743217 0.6590659 0.19784126 0.02130822
0.19760196 0.02679253 -0.32697034 -0.2993839 0.36184865 0.5777044 -0.07127715 0.22593936
1.0963197 0.36280677 -1.1631936 -0.83884555 -0.35174415 0.7540678 -0.9780145 1.2755127
1.163124 3.0209727 0.62154895 0.7220831 0.23332308 -1.2289983 -1.2370067 1.3894823
-0.65731555 -1.0126197 1.1821667 0.98272336 -0.3611787 -0.15577185 0.47011685 0.7156767
-0.03923142 5.53113 -0.4740429 -0.035769835 -10.290346 2.5306523 -0.3973904 0.06461087
10.304473 -6.144178 1.0810797 2.5762632 1.078278 -0.7160903 -0.48855388 0.46203792
-0.6765807 -0.5850914 0.34695172 -0.033019718 -1.2810326 -1.0380121 5.245678 2.7763965
-2.3174546 -0.7577144 3.662111 2.9814987 0.7866707 -0.8297978 3.7569034 -3.1032805
-0.27181098 1.0032315 -0.5491695 -0.6442574 0.1672227 -1.8129021 3.037342 -2.9238966
-9.635549 4.321248 -2.5545292 -2.0748847 -0.08859208 -0.019606806 -0.91616476 -0.74140877
0.8200041 0.19306836 -1.9119166 -2.3236578 -0.3052946 1.6850877 -2.8462443 1.8674401
-1.4577917 11.291386 1.3564945 1.5019011 0.7760246 -7.9899755 -1.2666205 1.2015117
-4.352325 -2.888887 1.3218887 0.43101484 -0.6690979 -0.8090573 1.5084777 0.35910115
-0.5371387 -2.179633 1.1950192 1.1807593 -1.6965115 -3.530439 1.5308803 -0.77551275
3.229735 9.078194 -2.560183 -3.5401103 -1.8449275 2.9026468 0.7765842 -0.72776777
1.4046227 1.3204024 -0.78860354 -0.08501869 2.0113435 2.1194155 -4.47962 -3.8100436
0.41307357 3.137804 1.0400577 0.8155262 -42.11189 -5.5836368 1.2358654 -0.6521208
-15.903609 5.672255 -5.064488 -5.048551 -2.9223042 2.6753745 0.1287315 -0.448673
1.7429516 1.4066484 -0.08951439 0.62533045 2.8516552 3.8031096 -6.661559 0.34103543
3.5148888 4.6618156 -2.5862045 -0.985194 3.9209533 -1.6972882 -2.4880197 2.0266354
8.485523 -0.037379302 -2.8563888 -0.7869387 -2.8863113 4.1471295 -3.4349947 4.291386
-0.9894864 -2.495701 2.7664797 3.5208309 1.2255143 3.1609337 0.44259295 4.6564407
0.13433409 0.67779124 -0.07890969 -0.44542682 -0.38352063 0.09667909 0.11510172 0.37678418
1.4346771 3.2236972 0.25026283 0.2096001 0.028158613 -1.026867 -0.61578894 0.16219673

hidden2.bias f4 [16]
00000000: f644 85bf dc73 2cbf 8034 143f 14fb 83bf
00000010: c699 303f e9b6 cb3f c227 4bbf 169f 323d
00000020: c693 a6be 510d fbbe 15e7 543e 7d69 2d3f
00000030: e8ea 76bf 8910 cdbf 827c adbe 8991 7f3f
-1.041167 -0.6736429 0.5789261 -1.0310998 0.6898464 1.5915195 -0.7935754 0.043608747
-0.32534617 -0.49033597 0.20791276 0.6773909 -0.9645219 -1.6020671 -0.33884054 0.99831444

hidden3.weight f4 [8, 16]
00000000: ed34 d53e 762c 34bf 213c 3bc0 54f1 dabf
00000010: d95a 71bf 2989 8b40 d282 873f 94ea d43e
00000020: cc3a 2040 6f3c c740 5e64 febe c225 35bf
00000030: 87b6 9d3f b959 ddc0 baf9 98bf 4ce4 2e3f
00000040: 3f65 89bf 2e36 22bf 67a8 f940 0d7a 8cc0
00000050: 8ace 82c0 fd23 7c3f b0c7 c6bf 3946 8c3f
00000060: b373 3140 118a 29c0 9dfb a740 da29 d73f
00000070: c4c6 3d40 3973 40bf 1db3 d0bf e6ee 3240
00000080: da40 80bf f382 2b40 9cf2 c940 5072 dac0
00000090: 3da5 7940 aae1 8a3f 5990 5ac0 62d1 9dbf
000000a0: 019c 1d40 5ced 1ec0 4858 5940 fbe2 c640
000000b0: bed7 d440 3a65 90bf 815d 9abf 9bf2 5540
000000c0: 63ac 4740 e7de 4840 e606 07c0 536a 84bf
000000d0: 72d0 803f b7c7 06c0 c03a c0be 581f 20c1
000000e0: 015f 58bf bb92 90c0 e015 a540 6338 a13f
000000f0: 5f2c 9cbf b5ab 1340 9ef8 cbbe d2b9 8dbf
00000100: 64cc 09c1 7525 ca3e c66f c3bf 763f 1040
00000110: f1f2 b140 f293 5bbf 0f48 24c0 cdc5 34c0
00000120: 139b 9b3e 1636 2c3f c45c 3abf 9ad8 db3f
00000130: cade 5840 c962 0240 f964 75c0 04f3 a23f
00000140: 2e14 48be 0396 eabe a218 f7c0 a23c 9c40
00000150: c0a0 9e3f bc4b 8bc0 3c00 c9bf 6db2 d0c0
00000160: c682 8abf 942c 84bf 76e4 d940 2c57 b23f
00000170: f62c 85bf e6b2 63be 7002 d2bf 37ab 65bf
00000180: 289b 2240 58e0 7140 0cd5 373e 4e89 17c0
00000190: d5f3 763f 5111 bdbf 60d2 91bf 8fa0 2ec1
000001a0: 6c4a 9ebf 3727 3a40 cbfd 6640 4827 1040
000001b0: d159 c4bf dde4 d9bc 5020 b7bf 6b9a 7abf
000001c0: 0106 5cbf daff 4bc0 2780 aa3f efba 20c0
000001d0: 67d5 01c0 b52a 983f 27b4 60c0 6c6f 3c40
000001e0: 602e 1340 f1d1 01c1 71b8 95c0 b8d9 bf40
000001f0: 4b66 733f 7a00 97bf 8cb1 48c0 7c3b 923e
0.41641942 -0.7038034 -2.925545 -1.7104897 -0.9427925 4.360493 1.0586798 0.4158522
2.5035887 6.226127 -0.4968595 -0.7076074 1.2321328 -6.9172025 -1.195121 0.68317103
-1.0734023 -0.6336392 7.801807 -4.389899 -4.0877123 0.98492414 -1.552969 1.095893
2.7726867 -2.649052 5.2494645 1.6809647 2.9652567 -0.75175816 -1.6304661 2.7958312
-1.0019791 2.6798675 6.3108654 -6.826454 3.9007103 1.0850117 -3.4150603 -1.2329524
2.4626467 -2.4832373 3.3960133 6.2152076 6.6513357 -1.1280892 -1.2059785 3.3429325
3.1198967 3.1386049 -2.109796 -1.0344948 1.0063612 -2.1059396 -0.37544823 -10.007652
-0.84519964 -4.5179114 5.1589203 1.2595333 -1.2201041 2.3073552 -0.39838117 -1.1072333
-8.6124 0.39481702 -1.5268486 2.2538733 5.560906 -0.8577262 -2.566898 -2.8245728
0.3039175 0.6727003 -0.727978 1.7175477 3.388598 2.0372794 -3.834288 1.2730412
-0.19538948 -0.45817575 -7.721757 4.8824015 1.2392807 -4.352995 -1.5703197 -6.5217805
-1.0821159 -1.0326104 6.8091383 1.3932853 -1.0404346 -0.22236213 -1.6406994 -0.8971438
2.54072 3.7793179 0.17952365 -2.3677554 0.9646581 -1.477091 -1.1392326 -10.914199
-1.2366462 2.9086435 3.6092403 2.2523975 -1.533991 -0.026598388 -1.4306736 -0.97891873
-0.8594666 -3.187491 1.3320359 -2.5114095 -2.02865 1.1888033 -3.5109956 2.9443007
2.2997055 -8.113755 -4.678765 5.995327 0.9507796 -1.179702 -3.1358366 0.28561008

hidden3.bias f4 [8]
00000000: 1ecf 0040 13b6 403f 8d92 6c3f 57e3 253f
00000010: a952 6240 2203 023f efdb 523f 09b1 8c3f
2.0126414 0.75277823 0.9241112 0.6480002 3.5362952 0.5078603 0.8236684 1.0991527

predict.weight f4 [2, 8]
00000000: 21e8 ebc0 a2ff d4c0 cbdd 5041 8880 e8c0
00000010: 42fa 1541 95c1 9940 181c ddc0 40d4 ffc0
00000020: a4ce 7c40 5e66 4a40 f94b b0bf 0eb1 2f40
00000030: 9ff5 2f40 d486 aec0 5e71 21c0 6acc bf3f
-7.372086 -6.656205 13.054149 -7.26569 9.373598 4.8048806 -6.9096794 -7.9946594
3.9501123 3.162498 -1.3773185 2.7451816 2.7493665 -5.4539585 -2.5225444 1.4984257

predict.bias f4 [2]
00000000: fb93 2fbe 2c28 6bbf
-0.17146294 -0.9185817
