project_work/MLP/trained_model.pth (torch, 6113 bytes, 8 tensors)

hidden1.weight f4 [24, 2]
000000 56 a2 33 40 9a 2f e7 be 30 05 ec 3f e3 dd ae bf
       2.8067832 -0.45153505 1.8439083 -1.3661464
000010 44 9c bd bf dc 5f 22 40 32 e9 f1 bf 9c 53 0b c0
       -1.4813313 2.5371008 -1.889929 -2.176978
000020 18 a1 28 40 2b 4f b5 bf 97 62 12 40 00 52 84 be
       2.6348324 -1.4164785 2.2872674 -0.2584381
000030 8e cb bf 3f c7 95 a8 bf 91 ca 0a 40 10 67 f3 3d
       1.4983995 -1.3170708 2.1686137 0.11884892
000040 ee 53 b4 3f 4d 42 13 40 b5 9f 3d c0 d6 23 b9 3f
       1.4088113 2.3009217 -2.9628727 1.4464061
000050 8a a5 f7 bf 25 92 16 40 7d 08 57 40 2c de 3d be
       -1.9347394 2.35267 3.359893 -0.18541783
000060 4c 0a 25 c0 5f 91 34 bf e3 b4 17 40 6c 0f 86 bf
       -2.5787535 -0.7053432 2.3704154 -1.0473456
000070 dd ce 12 bf d2 00 1b 40 5e 4d 8f 3f d9 da 1c c0
       -0.573469 2.421925 1.1195486 -2.4508574
000080 e8 a5 35 40 2e 68 d6 3f 0e 7f 07 c0 8f 94 b5 3e
       2.838251 1.6750543 -2.1171298 0.35464904
000090 95 1f b7 3f 9c 97 7c bf 2f 6c 01 c0 4d 14 9f 3e
       1.4306513 -0.9866884 -2.022228 0.31070176
0000a0 f9 b4 1f 40 50 a9 c2 3f 4a 89 2c 40 23 28 23 c0
       2.4954207 1.520792 2.6958795 -2.5493248
0000b0 30 81 2e c0 26 ae 9f 3f 16 c2 f5 3f 88 17 1a 40
       -2.726635 1.2475021 1.9199855 2.4076862

hidden1.bias f4 [24]
000000 d5 eb 03 c0 17 ae 9c bf e9 0e b8 3e 8e 1f 2b 40
       -2.061269 -1.2240628 0.35948876 2.673801
000010 a5 f8 15 3e 2b 5b 1a c0 e8 0c da 3e c4 cd 10 c0
       0.14645632 -2.4118145 0.42587972 -2.262559
000020 94 ef 3b bf cb 79 d5 3f 1e 3d 3d 3f 30 92 16 bf
       -0.7341244 1.6677793 0.7392138 -0.58816814
000030 b6 a9 1a 40 39 22 eb 3c 89 4b c3 bf a7 9a 8b 3f
       2.4166083 0.028702842 -1.5257427 1.0906571
000040 c8 96 cc bf c0 ca 10 40 09 2c 13 3f fb a2 0e 40
       -1.5983515 2.2623749 0.5748907 2.2286975
000050 91 69 8a bf 1d b5 18 3f 55 b9 d0 3f 76 81 a4 bf
       -1.0813466 0.59651357 1.6306559 -1.2852008

hidden2.weight f4 [16, 24]
000000 1a 24 31 bf f1 f3 88 be d4 45 f4 3e ce c2 16 3f
       -0.6919571 -0.26748613 0.47709525 0.58891
000010 38 17 05 3f 22 3c 2a bf 31 20 c3 3e 8d d6 28 bf
       0.51988554 -0.66498005 0.38110498 -0.6595238
000020 47 21 d1 3e 6b 6c 90 3e 19 ea a0 3e fd a8 b5 3e
       0.408457 0.28207716 0.31428602 0.3548049
000030 b9 d3 53 3f a5 90 9d 3e dd 92 2b bf 50 40 2f 3f
       0.8274494 0.30774418 -0.6702097 0.6845751
000040 cc 04 af 3e d1 1a 1a 3f a9 bf 0f 3f 4f fe 14 3f
       0.34183347 0.6019717 0.56151825 0.58200544
000050 4c db aa 3e 05 44 19 3e 6b c7 a9 3e 1c ac 68 3e
       0.33370435 0.14967354 0.33159956 0.22721905
000060 22 8d af be 11 cd 15 bf fb db 15 3f b6 82 8a bd
       -0.34287363 -0.5851603 0.5853879 -0.067632124
000070 63 5c 97 3c 72 2a 01 bf 70 1c cf be 94 9a 0d bf
       0.01847667 -0.5045539 -0.40451384 -0.5531399
000080 ea c3 c9 bd 38 33 b8 bb a6 25 9a 3d ab 06 d8 bc
       -0.09851821 -0.00562134 0.07526712 -0.026370367
000090 3e 47 2b 3f 31 bf 28 bf f3 72 d8 3e cd 01 46 be
       0.6690558 -0.65916735 0.422752 -0.19336624
0000a0 9e 54 af 3e d5 2e 02 3f f9 11 d8 be ef 12 e4 3e
       0.34244245 0.5085271 -0.42201212 0.44545695
0000b0 d8 d0 59 3d b1 1a 1e 3e cc e7 cd 3d b2 b4 ca 3e
       0.053177685 0.1543987 0.10053977 0.39590985
0000c0 aa df 1c c1 d7 05 78 c0 31 a6 1c 40 5c 9c 21 41
       -9.8046055 -3.8753564 2.4476435 10.100674
0000d0 0c 99 87 bf ae ab 4d c0 97 bb a1 be 5f d8 76 c0
       -1.0593581 -3.2136035 -0.31588432 -3.8569562
0000e0 a4 9e cc be 28 f6 2b 41 5a 77 44 40 6e 82 e5 bf
       -0.39964783 10.747597 3.0697846 -1.7930429
0000f0 aa 88 7e 41 6d 36 b9 bf 1c 7a c0 bf ad 36 97 3e
       15.908365 -1.4469734 -1.5037265 0.29533902
000100 6b 1c 30 c0 fc a8 6a 40 f3 e9 8a 3d 01 53 46 40
       -2.7517345 3.666564 0.067829035 3.0988162
000110 0e d4 fe bf c2 b1 fc bf 6a 45 fe 40 f6 7a 1f c0
       -1.9908464 -1.9741747 7.9459734 -2.49188
000120 83 3c 0a bd f8 a5 18 3f 4c 82 25 c0 00 26 8e 40
       -0.033749115 0.5962825 -2.5860777 4.4421387
000130 e2 f5 84 40 ba ad c0 be 6e 7d 39 40 a1 9f 71 bf
       4.155015 -0.37632543 2.8982806 -0.943842
000140 d5 04 2a bf 6c 95 a8 bf 30 ec de bf b1 86 06 40
       -0.66413623 -1.31706 -1.7415829 2.101971
000150 d2 aa d6 3f 06 61 53 40 f5 f6 86 c0 9a 81 04 41
       1.677088 3.3027968 -4.217646 8.281641
000160 7e c7 29 3e a7 e4 1f 3f 57 26 f6 3f 70 12 0d 3f
       0.16580006 0.6245827 1.923045 0.5510626
000170 52 b4 f9 be 9c cd 42 c1 31 de 9c bf 92 ff 05 c0
       -0.48770386 -12.175198 -1.2255307 -2.0937238
000180 1e 27 04 40 28 1e 3f 3f 83 82 f6 be 46 9d 0c c0
       2.0648875 0.7465539 -0.48146448 -2.1970992
000190 35 3f 1c 41 fd 2f 55 3f 04 c3 82 40 39 e2 4e 3f
       9.765431 0.8327635 4.0863056 0.8081394
0001a0 fa ca 3a 40 6b 29 e9 bf 0f 8a 37 bf 53 c1 47 41
       2.9186387 -1.8215765 -0.71695036 12.484698
0001b0 56 54 24 c0 3c ef 10 41 d2 d6 62 bf 93 e3 f8 3f
       -2.5676475 9.058407 -0.8860904 1.944445
0001c0 1a d3 0b 41 1f bc 5b bf 65 d1 41 40 fd 41 ec be
       8.739038 -0.85833925 3.0284054 -0.46144095
0001d0 76 62 19 41 94 8d 85 41 75 3d df bf f1 de f9 40
       9.586538 16.69413 -1.744063 7.8084645
0001e0 43 f2 a1 bf 98 81 1a bf da 2a 88 3e a8 11 05 40
       -1.2652057 -0.60353994 0.26595193 2.0792027
0001f0 54 96 80 bf 4c 74 17 bf 37 66 f3 be 2e 3d 5b bf
       -1.0045877 -0.5916183 -0.4753892 -0.8564023
000200 2b c0 c2 bf 5d 77 a2 3f b1 06 5b 3e ef 7a 24 c0
       -1.5214895 1.2692677 0.21389271 -2.5700033
000210 f2 ea d0 3f 20 0d c6 bf 75 6d 2b bf 42 a3 8e 3f
       1.63217 -1.5472755 -0.66963893 1.1143572
000220 44 30 9d c0 cb d7 63 3f 1c cd 48 bf dd 9d 61 3f
       -4.912142 0.8900115 -0.7843797 0.88131505
000230 47 60 51 c0 84 12 ec c0 9f 13 7e 3f af 05 41 c0
       -3.2715013 -7.37726 0.9924869 -3.015972
000240 7d 83 95 bd d2 77 05 3f d2 1b ab bf 6e 91 c8 3f
       -0.0730047 0.52135956 -1.3367865 1.5669382
000250 43 a0 ba 3f 16 57 f9 bd 75 5d f5 3e 34 85 cc bd
       1.4580158 -0.121748134 0.47922865 -0.09986344
000260 0d a2 82 bf 23 19 e9 bd e7 4f 80 bf be fd 89 3f
       -1.0205704 -0.113817476 -1.0024384 1.0780561
000270 2d ba 4c 3f 76 55 b5 3f 7b 3c 8c bf 9b 01 11 40
       0.7997158 1.4166706 -1.0955957 2.265723
000280 ae 2f 19 c1 64 ba 87 3e 7d d7 d4 bc 0f 99 08 bd
       -9.574141 0.26509392 -0.02598166 -0.033349093
000290 20 7b 88 bf 67 c3 2e c0 a8 b3 c6 be 19 4c 19 c0
       -1.0662575 -2.7306764 -0.38808942 -2.3952696
0002a0 38 a1 74 c0 24 c9 0c c0 f2 ef 91 3f aa c2 a0 40
       -3.82234 -2.1997766 1.140135 5.0237627
0002b0 71 5f 10 c1 6c 14 0a c0 e7 8c 70 c0 73 31 37 c0
       -9.023301 -2.1574965 -3.7586 -2.8623931
0002c0 0a 3e 89 c0 30 f1 68 40 bc ff b6 3f ae 6d 90 c1
       -4.288823 3.639721 1.4296794 -18.053555
0002d0 0b fd 99 40 ae db 2c c1 46 21 e4 bf df 29 18 40
       4.812139 -10.803633 -1.7822654 2.3775556
0002e0 9c ba 08 c2 09 fc 03 40 9f 8d 16 c0 dd f6 ef 3f
       -34.182236 2.062258 -2.3523939 1.8747212
0002f0 f6 f5 87 c1 98 bb ae c1 91 92 5d 40 94 3d 6a c1
       -16.995098 -21.841599 3.4620707 -14.640034
000300 a6 ed 84 be 44 c9 fd bc 86 d0 19 3e 62 94 f3 be
       -0.2596256 -0.03097976 0.15020952 -0.47574145
000310 e4 ea 88 bb 6a b3 76 3e 7d 43 e2 be e0 c3 8c 3e
       -0.004178392 0.24091879 -0.44192114 0.2749319
000320 77 26 89 be 86 06 df 3e f1 e2 94 3e 8b b5 b3 be
       -0.2678716 0.43559664 0.29079393 -0.35099444
000330 f7 80 27 3e 9c 99 6f be 37 05 10 3f bf 8c 97 bf
       0.1635779 -0.23398441 0.5625796 -1.1839827
000340 d1 e2 63 be c0 1a 41 bd 48 15 c5 be c9 44 80 be
       -0.22254492 -0.04714465 -0.384928 -0.2505248
000350 5c 8e a3 3e 61 2c 27 40 94 ea ce 3d ea ba 42 be
       0.3194455 2.6120837 0.10103336 -0.19016615
000360 fe 06 93 bd a2 55 31 3f f2 cd 59 bf fb 29 20 bf
       -0.07179068 0.6927129 -0.8507987 -0.6256406
000370 c8 3d 3f bd b7 61 ee 3e f4 56 cd 3d 79 d3 08 3f
       -0.04668978 0.46558926 0.100263506 0.5344768
000380 50 96 a1 3d bb 59 75 3e 6b eb c9 be ab e3 1a 3e
       0.07889998 0.2396001 -0.39437422 0.15125911
000390 be bf d1 3e 71 9c 29 3e 26 6f 8a 3e cc 63 26 3e
       0.409666 0.16563584 0.27037925 0.16249007
0003a0 5a 59 be 3e bd 80 4a bf 97 92 51 3e 71 b0 29 bf
       0.37177545 -0.7910269 0.20466076 -0.66284853
0003b0 dc 59 0a 3f 4a 3e e9 3d 38 16 0f bd 10 de 01 3f
       0.54043365 0.11388834 -0.0349333 0.50729465
0003c0 e4 d3 4d bf fd dd e3 be 18 3e d9 3d 08 62 6b 3f
       -0.80401444 -0.445053 0.106075466 0.9194646
0003d0 f9 3a 18 c0 ec de a7 bd 19 7e 6b bf c0 ee 51 be
       -2.3785994 -0.08196816 -0.91989285 -0.20501232
0003e0 61 9e 9d bf f0 d3 f7 3e d7 c4 48 3e b3 ba 85 c0
       -1.2313958 0.48403883 0.19606338 -4.1790404
0003f0 c8 4a 90 3f 7b 61 2c c0 f3 e3 0d be 4c d8 fd bd
       1.1272821 -2.6934497 -0.13856487 -0.12394771

hidden2.bias f4 [16]
000000 1c b7 01 3f d4 72 70 bd 77 08 d9 3f 15 65 ae 3f
       0.5067003 -0.05870326 1.6955708 1.3624598
000010 9b 88 d4 3e c3 ae fd 3d c4 d7 bc 3e 83 79 04 3e
       0.41510472 0.12386849 0.36883366 0.12936978
000020 d4 1a 15 be 5e a4 31 bf 7f e0 dd be 41 fa c8 bf
       -0.14561015 -0.6939143 -0.4333534 -1.5701371
000030 00 20 68 be 20 34 e1 bd 9f ea 94 be 24 1d 22 c0
       -0.22668457 -0.1099627 -0.29085252 -2.5330286

hidden3.weight f4 [8, 16]
000000 b9 73 d9 3e c9 3c 90 40 b2 a0 a3 3f 8c ad 24 c0
       0.42471102 4.50742 1.2783415 -2.5730925
000010 5a 54 90 bf 00 76 05 3e 32 67 7d 3e c8 98 fc 3d
       -1.1275742 0.13033295 0.24746397 0.12333828
000020 9b 5d 1d c0 20 fb d8 c0 d9 ad cd bf 67 03 86 bf
       -2.4588382 -6.780655 -1.6068679 -1.0469788
000030 c3 df 2b bf ea 6f e3 3f f7 91 86 3f 07 88 56 bf
       -0.6713831 1.7768528 1.0513295 -0.8380131
000040 16 f9 79 be 1a e0 1d 40 08 9f 03 41 ad 38 a9 bf
       -0.24411425 2.466803 8.226326 -1.3220421
000050 0b fa f9 3e 0d 29 8d 3e e8 62 b4 bf ed 9d aa bf
       0.4882358 0.27570382 -1.4092684 -1.3329445
000060 65 5c ea bf c9 6f 08 c0 d2 a1 99 bf 3b f6 e1 bf
       -1.8309447 -2.1318228 -1.2002509 -1.7653269
000070 24 02 b8 3e 5b ca 38 40 90 76 f0 3f c7 71 e8 bf
       0.35939133 2.8873508 1.8786182 -1.8159722
000080 ff 99 54 40 9e 32 b8 c0 f2 41 ec bf 9f fe 4b 40
       3.3218992 -5.756179 -1.8457625 3.1874158
000090 e9 09 9d be 31 8a 59 bf ae 71 96 40 7f a4 e5 bf
       -0.30671623 -0.8497649 4.701377 -1.7940825
0000a0 62 cb 61 c0 fd 83 c9 be 81 72 66 c0 b4 c1 13 c0
       -3.5280385 -0.39358512 -3.6007388 -2.3086977
0000b0 ea f0 49 c0 8f 8c f6 bf 9c 73 ba 3f 87 9b 05 c0
       -3.1553292 -1.9261645 1.4566531 -2.0876176
0000c0 d2 11 19 40 a0 77 77 c0 10 7d 83 bf c7 18 45 c0
       2.3917127 -3.8666763 -1.0272541 -3.0796373
0000d0 6e 51 ab 40 17 70 8e bf 68 87 11 3f 5b fe 29 c0
       5.35369 -1.1127957 0.5684724 -2.6561496
0000e0 3e a6 2d c0 d1 5f bb 3f 8b 94 55 c0 7a 5c 50 bf
       -2.7132716 1.4638616 -3.3371913 -0.8139111
0000f0 7f 46 15 c0 db 1c fe bf 40 fe 68 3f c6 12 2b bf
       -2.3324277 -1.9852556 0.91012955 -0.6682552
000100 6f f1 7f 3f 8c 90 93 40 f2 ba e0 3f 0e 62 ea bf
       0.99977773 4.611395 1.7557051 -1.8311174
000110 99 e7 13 c0 a3 31 3e 3f 73 77 9c 3f 9d b0 68 be
       -2.3110106 0.7429449 1.2223953 -0.22723623
000120 99 77 20 c0 3c 0e d5 c0 82 68 d9 bf 1e 74 a5 bf
       -2.5072997 -6.6579876 -1.6985018 -1.2926061
000130 a8 45 4d bf d9 a7 12 40 5e 7d 81 3f 58 67 a5 bf
       -0.8018441 2.2914946 1.0116384 -1.2922163
000140 54 88 a5 3e 87 80 27 40 2a 82 87 40 d7 16 02 c0
       0.32330573 2.6172197 4.234639 -2.032644
000150 da 1b 35 3f 2b 0a bc c0 3e 06 0b 40 14 37 2a bf
       0.70745623 -5.876241 2.172256 -0.6649029
000160 af f3 c3 c0 fd 97 6c 40 e2 59 db be 55 ea 09 3f
       -6.1234965 3.6967766 -0.42842013 0.5387319
000170 07 41 10 bf 40 a3 0b c0 4c e5 dd bd a1 6e 5f 40
       -0.56349224 -2.181839 -0.108347505 3.4911273
000180 ad a5 59 3f 58 84 dd 40 2d 49 fa 3f 6b bd bb bf
       0.85018426 6.9224052 1.9553581 -1.4667181
000190 17 86 18 40 dd 7c 0f bf fb 5f 78 c0 b6 d8 d6 bf
       2.3831842 -0.560499 -3.8808582 -1.6784885
0001a0 12 09 10 3c 50 e7 02 40 fe 38 1b bf 31 7f 6b bf
       0.008791225 2.0453682 -0.6063384 -0.91990954
0001b0 42 88 91 bf 65 34 b9 3e 86 aa 3b 40 c4 58 71 40
       -1.1369708 0.36172786 2.932283 3.7710428
0001c0 43 cd 54 3f d2 f5 d4 40 88 17 12 40 19 aa 8d bf
       0.83125705 6.6550074 2.2826862 -1.1067535
0001d0 64 ed 0c 40 13 46 e7 be 11 5e 4b c0 65 ef 01 c0
       2.2019892 -0.4517065 -3.1776164 -2.0302365
0001e0 fa 96 69 3e 6e f8 08 40 77 6a 00 bf bf 48 83 bf
       0.22811499 2.140163 -0.5016245 -1.0256575
0001f0 ce 0c 5e bf 92 46 aa 3d 69 79 3d 40 3e 11 61 40
       -0.8673829 0.083142415 2.9605353 3.5166774

hidden3.bias f4 [8]
000000 b0 3c 96 3e 5c 70 bb be 25 fa 3d 40 ea 0a 22 40
       0.29343176 -0.3660916 2.9683926 2.5319161
000010 c0 af 70 3f 0d d3 e4 3d ef 10 57 3f ea a5 5f 3f
       0.94018173 0.11173067 0.84010214 0.8736254

predict.weight f4 [2, 8]
000000 4e f8 2b 40 2c 7b e9 bf 36 5a 03 41 80 4b b8 40
       2.6870303 -1.8240714 8.209524 5.7592163
000010 88 9f 5d 40 77 06 42 c0 ca b5 d0 c0 ae f7 bf c0
       3.462862 -3.0316446 -6.522191 -5.9989843
000020 48 f5 16 40 8c 8f 97 40 37 45 08 c0 ae d4 5e c0
       2.3587208 4.736273 -2.1292245 -3.481731
000030 fe 06 c4 3f 64 8f 93 c0 ed 03 aa bf 33 45 d6 bf
       1.5314634 -4.6112537 -1.3282448 -1.6739868

predict.bias f4 [2]
000000 b4 a0 53 3f d1 c2 52 3f
       0.8266709 0.82328516
